weights/power system agent q learning.npy (npy, 16128 bytes, 1 tensors)

array f8 [1000, 2]
0	0xbfda1f53c8fef7f5	-0.40816206577790065
1	0x3fdafcfb1c12aed3	0.4216907285833546
2	0x404c8e2af5cc1408	57.11068603958853
3	0x405747495589cf42	93.11385096033067
4	0x3ffe4b22f0617e9a	1.8933438672901617
5	0x4031d1146b078a2a	17.816717805233715
6	0x40061d0ab3c41092	2.7641805690964896
7	0x40259e50d053cb71	10.809210310200543
8	0xc00196de9c96b7e2	-2.198666785573537
9	0x401249b9f3cc0fa1	4.571998414354227
10	0x3fe2967fcf90fea1	0.5808714918166126
11	0x4019740d8ad63a26	6.363332909894359
12	0x3fd3053463fba8d9	0.2971926666638303
13	0xbfde1aabaa648aa9	-0.4703778423301324
14	0xbff152fa82857a16	-1.0827584360591849
15	0x3fff8ffe1be4360f	1.9726544465551148
16	0x3ff3a83131599afb	1.2285625388846586
17	0xbff4e88093bac741	-1.3067632456481564
18	0x3ff14e887465420f	1.0816731020642043
19	0x3fd6c3161ff2117c	0.3556571304291294
20	0xbfd03f314b4ed481	-0.2538569674901013
21	0xbfefe737651ce252	-0.9969746565685205
22	0x4024385bf7944b48	10.110076653339675
23	0x4045da38f9f45e64	43.70486378128115
24	0x3ff9f201b40bea18	1.6215836556499479
25	0xbfb26dd5b5c6be4b	-0.07198844612025217
26	0xbfe5feccdb830cb8	-0.687353543028073
27	0x3fe38eb5055a0a9a	0.611170301868998
28	0xbfc053d6ab32d0c7	-0.12755854949285192
29	0x3fb22ed289f11364	0.07102695338933313
30	0x3ff41e09a70597da	1.2573334240237188
31	0x3fda7819b11f0131	0.4135803441713675
32	0x3fb9a52d0eafb6aa	0.10017663582376693
33	0xc000f392f7e7177b	-2.1189326636694523
34	0xbfe7b997b007307b	-0.7414053381012445
35	0x3fd36a661c08d021	0.30336907136666197
36	0xbfdfffb29013f5f6	-0.49998153753389774
37	0xbfe8791b297708e4	-0.7647834596503142
38	0xbff5a367a7928d62	-1.352393774585686
39	0xbff2e1f6f8c89df3	-1.1801671712981914
40	0xbff289dab8b4004c	-1.158655854698753
41	0xbfa46d0f927bf4b3	-0.03989456809174765
42	0x403e017eb00b5262	30.00583935047542
43	0x4054381180af6fbb	80.8760682786223
44	0x400812d04195f40a	3.0091862796675786
45	0x3ffd8b7f974065f6	1.846557226969137
46	0xbfe018c6ca1ef6b4	-0.5030244777369348
47	0x4014705494067556	5.109697640318094
48	0x3fce52a26ee1fd65	0.23689680494497192
49	0x3feaeb43824edb52	0.8412187142447272
50	0xbfd98a34b3012c56	-0.39906041603962217
51	0x40050bec64d56087	2.630821979295493
52	0x3ff0b5e157bc15d4	1.0444043566834482
53	0xbfe8ca2b4ca43ce1	-0.7746788498788214
54	0x3fcabfb959df3557	0.2089759529903101
55	0xbfc36d0f273dd962	-0.15176572242826142
56	0x3fe885d2afd1b4a0	0.7663358148544326
57	0x3ffa3ac0fb600280	1.6393441981637409
58	0x3ff89c670f973118	1.5381842240340742
59	0xbfe3767cb2fc821b	-0.6082137580706929
60	0x3ffff13f3ca0e09a	1.996398197965425
61	0xbff0efcb4503eb3f	-1.058543462363289
62	0x4030111acd4b5122	16.066815215003892
63	0x4050137d4504bba8	64.30452084982119
64	0xbfca57a6f60e41e8	-0.20579993261755125
65	0x4018cf0c55dda0ab	6.202195493366314
66	0x3ffb0b7bdab0bf3d	1.6903036635012108
67	0x3fef042ea6c39d2a	0.9692605263816507
68	0xbfe17e0a1fdfe630	-0.5466356871176625
69	0x40050fcd6db34fc5	2.632716042551666
70	0x3ffd589975bf66ad	1.8341307258146273
71	0x3ff76e5eafbe5016	1.4644457688309607
72	0xbfb9e155c3947ff7	-0.10109458947090376
73	0x3fc85bc628f8e8d7	0.19030072212792135
74	0xbfd4c87b740f0e22	-0.32473646482341867
75	0x3fa2a9e5e42ee13d	0.03645246897161989
76	0xbfc57c8c08517dc0	-0.16786337286155906
77	0x3fe56260b5658d4c	0.6682590048698471
78	0xbfee69424550d7d6	-0.9503489831756677
79	0x3fd71bed9a9473c9	0.36107959838573983
80	0xbff1ef6f4d1a0824	-1.1209557544502866
81	0x3febda8c010d6f14	0.8704280872875381
82	0x40232d35b89a3ba3	9.588300484492555
83	0x4048978d396323c2	49.18399731961064
84	0x3fff18369b237dd2	1.9434114513495513
85	0xbfc5dd70d5384da9	-0.1708203354943241
86	0x3ff8e7ba973efbb5	1.5565744312332133
87	0x3ff71e08375a677e	1.4448320543510529
88	0xbfd1a3449d501449	-0.2755900894410997
89	0xbfb8a581a7136a40	-0.09627542809486389
90	0xbfc9e1ac7db22d15	-0.2021995176076891
91	0x3ff3720aa9c159cf	1.2153422003808492
92	0xbfa62e963207c8a7	-0.04332417832110141
93	0xbfe8af8072731307	-0.7714235530225729
94	0x3feaa5663a67bf92	0.8326903477409238
95	0xbfdd2e2f95d8475b	-0.45594396241459884
96	0xbfe265a04b51a295	-0.5749055358001721
97	0xbfd7254477de4226	-0.3616496248805866
98	0x4006f304a3e14ff6	2.868661194146621
99	0xbfe0601ae9ae97ef	-0.5117315830327679
100	0x3ffb8ac348e795b8	1.7213776443326037
101	0x3fd959ae01f9488f	0.3960986155772241
102	0x40217452143811c1	8.727188712925342
103	0x4042862080e3807b	37.04786692722788
104	0xbff0930163fa084f	-1.035889997991507
105	0x4011e558c756ec6a	4.473971476250066
106	0xbfec801afe4dd963	-0.8906378714444084
107	0x40096c46ecffca2d	3.1778696551857792
108	0x3fe578a897e55932	0.670978829070725
109	0xbfdb1ee4abfba422	-0.42376057429516056
110	0x3ffd8411d8ed2e1a	1.8447435830775079
111	0xbfe54a2f5aec2f52	-0.6653057838279699
112	0xbfd125c3d32b1eac	-0.267929989070107
113	0x3ff35457044e081f	1.2080907982021996
114	0x3ffb716b2de76592	1.715190104782185
115	0x3ff0d5e7e7d509cf	1.0522231155342643
116	0x3fb4a80bfe63c313	0.08068919144330904
117	0x3ff2ad3f723f8cac	1.1672968352147945
118	0x3fbfe48e35fb8262	0.1245812303345786
119	0x3ffa9b4b502177b6	1.6629136209589723
120	0xbfbe97cc31d68409	-0.11950374809977417
121	0x3fe1573905ec945d	0.5418973079400861
122	0x401f7f383c1311c5	7.8742379557265325
123	0x403e2769dc6a7b49	30.15395906066559
124	0x3ff77e50fae911fd	1.4683389474095059
125	0x3ff0ff29bb0e4079	1.0622956568586501
126	0xbff5d8d2f816fd98	-1.3654355708129966
127	0x400c1556ea479f0a	3.510419683752734
128	0xbfb1cc7d76c52403	-0.06952652120266127
129	0x3fff4d0811c47f99	1.9563065237088948
130	0x3ffee16ca20b4eb5	1.9300352411127453
131	0xbfdbee502a2f72b7	-0.43642047996199146
132	0xbfd80207a3174e4f	-0.3751238911329197
133	0x3fe9e2897a99113b	0.8089034456720933
134	0xbff3650d3c18e2f5	-1.2121708247706782
135	0x400053a98d515579	2.040850738567937
136	0x3fe7e9cd9c9f2789	0.7472904261605758
137	0xbfec03a884933395	-0.8754465665202696
138	0x3fab624a62e403e6	0.05348427254831005
139	0x3fc56ac71beca49a	0.16732109893317643
140	0x3ff3714db60dad1c	1.2151620017492126
141	0x40049f8012343947	2.5778809950053616
142	0x4015887cab38b83c	5.383288073861021
143	0x403b363dc96716e9	27.211880290668805
144	0x3f56885cbc44afb0	0.0013752847308507836
145	0x3ffeb091c3b5b3f9	1.918107761851614
146	0x3fe7791c36f037dc	0.7335339615835852
147	0x3fbde25b78ccfcfe	0.11673518847691253
148	0x3fc5deeb41185d55	0.17086544683909702
149	0x4005d36a3fbc7144	2.7282299975760527
150	0x3fd5e786fd528c9e	0.34225630510827354
151	0x4007a3e9fdd8bc78	2.95503614728619
152	0x3ff0d396a46e3a25	1.0516573355740857
153	0xbfff212f3c88c126	-1.9456016888253287
154	0x3fe95480f079dcc3	0.7915653893277511
155	0x3fe511f26c284d89	0.6584407913637033
156	0xbff28b0ca614d336	-1.1589476096680307
157	0xbfe6e763d2527a3d	-0.7157458408217462
158	0x3fbfbc43455ff6d8	0.12396641200754333
159	0xbfe5cc56872af4ac	-0.6811936035152448
160	0xbff8f21abf560c9a	-1.5591075395648546
161	0xbfe38f6e5c44c067	-0.6112586786384896
162	0x401351ff3c8a8e05	4.830075212437355
163	0x4038ff93c064ab42	24.998348259522807
164	0xbff0c9dc2e977982	-1.0492822475422092
165	0x40089171eb79b5c4	3.071018066074176
166	0x3ff1a471764d3f64	1.10264726840611
167	0x400409d5bf4e5f89	2.504802221850643
168	0xbfce21ed48cd6a7c	-0.23541036658101067
169	0x3fd007f181b7d9fa	0.25048482578077336
170	0xbfce18175a886f50	-0.235110205846349
171	0x4002f5082d139c42	2.3696445008859266
172	0x3ff69e42e781270c	1.4136380236763584
173	0x3fe297421c27faea	0.5809641408848993
174	0xbff28baa7ba6c910	-1.1590981321465428
175	0x3ff7ca4defd953f2	1.486890732679282
176	0x3ff69c755cd5aabd	1.4131978632309903
177	0xbfdedafaa171657c	-0.4821154190627437
178	0xbffe1c8cf5432acd	-1.8819703655778313
179	0x3ff1ccf397230caa	1.1125369933877587
180	0x3ffa5875a73f7283	1.6465965779417793
181	0x401f9fc5ed58e715	7.906028469611347
182	0x4015354352c2a283	5.302014630441252
183	0x40375dcb3a8dffee	23.366382274310972
184	0xbfe11a82392ea02c	-0.5344859234655863
185	0x400e233bbfc7a5fa	3.7672038061907616
186	0x3fb0677fdf48b43f	0.06407927705068149
187	0x40074ae8befb3ecc	2.9115767403053265
188	0xbfd93a12a7de6eb7	-0.39416948693699844
189	0x3fee21fdda4f8186	0.9416493667486499
190	0x3fbc41e12d154b25	0.11038024283088228
191	0x3ff2859315c83566	1.1576109743940264
192	0xbff0a5c5b276eed2	-1.0404717417977065
193	0x3fe4007caa094a66	0.6250594445248907
194	0xbfe80e01b7acbd66	-0.7517098033330682
195	0xc004fc6c6fb99301	-2.623253701067711
196	0x3ff5cd42fc875870	1.3626127113725737
197	0x3ffe127763cf0812	1.879508390310097
198	0x3fdea31cd50d1f93	0.47870560460841566
199	0x3fda8f4fcbfede17	0.4149970523971844
200	0x3fd0771de5e076a7	0.25727031182200694
201	0xbfd646483e4bb701	-0.348039685092644
202	0x400d0765745bd37c	3.628611477901755
203	0x3ffd716407c1ccfa	1.840183286953844
204	0x400010ae13c8f4dd	2.0081445260717445
205	0x3ff8b9262c01bfba	1.5452024191872469
206	0x3ff3d46bf23aedbb	1.2393607580296322
207	0x3ff099d41ae82f9c	1.0375557948163765
208	0xbfc735201d760a51	-0.181308760056782
209	0x401e005364699612	7.500318116135093
210	0x3ff7ca2a6a988c52	1.486856857671928
211	0x40296c257db59d21	12.711223534030582
212	0x3fe3d7a2ba480d8d	0.6200727117833807
213	0xbfd3ff3f2e3e2257	-0.3124540282811145
214	0xbffb93aaa3da83eb	-1.723551406910924
215	0x4015895344be0bc1	5.384106706714136
216	0x3fe727a6d7cabd20	0.7235902990995875
217	0x3fe003fcd81c00f8	0.5004867764364738
218	0xbfd9a4766346260b	-0.400662991473468
219	0x3fffe6e9b1fcf08b	1.9938752129228614
220	0xbf97d552c47a1a10	-0.023274701349260296
221	0xbfdee87a68db7240	-0.4829393409725391
222	0x3ff2ba7824761fb6	1.170524732997348
223	0xbff832a4ad705081	-1.5123640799475029
224	0xbfc45bff8e590abb	-0.15905756426407955
225	0x3fb9e0a0e34d9eac	0.10108380841631498
226	0xc002ded530a69174	-2.3588050652344297
227	0xbfe4548c6dc71d78	-0.6353208679292228
228	0xbffee607f486c7b1	-1.9311599304023555
229	0x3fe645679e836768	0.6959722610438179
230	0x3fe65da4100c211c	0.6989307702470202
231	0x3fd6a3481a18bed5	0.35371592091085563
232	0xbfdb4f95869eacb7	-0.4267324270865162
233	0x3fc5c0973dc9c6c4	0.16993990437508988
234	0xbfc3249c91007ea3	-0.1495547969834564
235	0x3ffbd40382f826de	1.7392611614217723
236	0xbfb1e50a3bfae5f1	-0.06990112270695882
237	0xbfef9f25c1a7bb6a	-0.9881771833732789
238	0xbff821dab0d5a929	-1.5082652003862427
239	0x3fc5aa0dc7c7bbb4	0.16925213103192294
240	0xbfefcbc42a6ba556	-0.9936238125348307
241	0x3feaf4a7707fbf35	0.8423649976011577
242	0x4007b7733b4a2223	2.964575255584593
243	0x402582926025bc41	10.755023007017487
244	0xbfe5796aa3d70447	-0.6710713577268813
245	0x40160592d1bdb9d5	5.505442883686972
246	0x3ff877be5c068572	1.5292342753167216
247	0x40119e21913557ad	4.40442492378308
248	0xbfe69344819bd2b4	-0.705477002279244
249	0x40208c48081b97d4	8.273987058037086
250	0x3fd699237e91ba48	0.3530968414333171
251	0x40297e2300e8ae0f	12.746360805896101
252	0xbfda6f26848aea05	-0.4130340856897024
253	0x400820ffa5d99932	3.016112609580113
254	0x3fda5c2a4d9ee0ae	0.41187532024515405
255	0x4005a066c2a2d2de	2.703320999711976
